…
        "colab": {
          "base_uri": "https://localhost:8080/",
          "height": 779
        }
      },
      "source": [
        "model.summary()"
      ],
      "execution_count": 0,
      "outputs": [
        {
          "output_type": "stream",
          "text": [
            "Model: \"sequential_1\"\n",
            "_________________________________________________________________\n",
            "Layer (type)                 Output Shape              Param #   \n",
            "=================================================================\n",
            "conv2d_1 (Conv2D)            (None, 32, 32, 32)        896       \n",
            "_________________________________________________________________\n",
            "activation_1 (Activation)    (None, 32, 32, 32)        0         \n",
            "_________________________________________________________________\n",
            "conv2d_2 (Conv2D)            (None, 30, 30, 32)        9248      \n",
            "_________________________________________________________________\n",
            "activation_2 (Activation)    (None, 30, 30, 32)        0         \n",
            "_________________________________________________________________\n",
            "max_pooling2d_1 (MaxPooling2 (None, 15, 15, 32)        0         \n",
            "_________________________________________________________________\n",
            "dropout_1 (Dropout)          (None, 15, 15, 32)        0         \n",
            "_________________________________________________________________\n",
            "conv2d_3 (Conv2D)            (None, 15, 15, 64)        18496     \n",
            "_________________________________________________________________\n",
            "activation_3 (Activation)    (None, 15, 15, 64)        0         \n",
            "_________________________________________________________________\n",
            "conv2d_4 (Conv2D)            (None, 13, 13, 64)        36928     \n",
            "_________________________________________________________________\n",
            "activation_4 (Activation)    (None, 13, 13, 64)        0         \n",
            "_________________________________________________________________\n",
            "max_pooling2d_2 (MaxPooling2 (None, 6, 6, 64)          0         \n",
            "_________________________________________________________________\n",
            "dropout_2 (Dropout)          (None, 6, 6, 64)          0         \n",
            "_________________________________________________________________\n",
            "flatten_1 (Flatten)          (None, 2304)              0         \n",
            "_________________________________________________________________\n",
            "dense_1 (Dense)              (None, 512)               1180160   \n",
            "_________________________________________________________________\n",
            "activation_5 (Activation)    (None, 512)               0         \n",
            "_________________________________________________________________\n",
            "dropout_3 (Dropout)          (None, 512)               0         \n",
            "_________________________________________________________________\n",
            "dense_2 (Dense)              (None, 1)                 513       \n",
            "_________________________________________________________________\n",
            "activation_6 (Activation)    (None, 1)                 0         \n",
            "=================================================================\n",
            "Total params: 1,246,241\n",
            "Trainable params: 1,246,241\n",
            "Non-trainable params: 0\n",
            "_________________________________________________________________\n"
          ],
          "name": "stdout"
        }
      ]
    },
    {
      "cell_type": "markdown",
…
